assets/models/activity_detection_model1.tflite (tflite, 17000 bytes, 9 tensors)

tfl.pseudo_qconst1 i1 [7, 32]
-24 -127 -32 -108 21 106 -95 79
105 -89 56 124 -68 -122 66 -46
-98 119 122 -119 -69 -76 85 103
-28 53 16 99 25 -79 -31 98
46 -80 127 -100 -35 41 96 48
47 86 35 -55 83 -33 -16 56
60 -8 -46 26 -29 -64 -46 -70
39 12 -2 26 -101 87 -59 -57
-121 -5 9 -15 -106 -92 -52 -43
-83 -108 18 -23 88 6 -62 15
-28 -38 66 -82 -95 36 18 22
-127 -90 -125 -31 16 -83 102 -90
-98 94 36 -18 -46 85 -42 -77
127 89 96 124 -48 -20 99 -5
-22 -97 10 -10 -103 -44 -39 100
-64 86 23 81 -118 -28 34 116
93 104 -94 9 -53 65 -116 24
-83 -4 79 -31 97 -27 -102 -114
93 0 -72 3 53 -127 -80 -71
13 -14 114 115 39 -2 -108 22
-50 73 -8 76 9 51 -5 22
7 -8 -113 18 -73 114 -33 -98
-116 74 7 -127 -53 45 -28 113
79 82 90 -7 -106 127 96 -39
-51 127 -13 95 41 57 50 28
-40 117 -44 47 -77 66 -9 46
-104 -59 -68 33 24 107 -54 50
7 61 125 66 4 -116 -124 72
00000000: e881 e094 156a a14f 69a7 387c bc86 42d2
00000010: 9e77 7a89 bbb4 5567 e435 1063 19b1 e162
00000020: 2eb0 7f9c dd29 6030 2f56 23c9 53df f038
00000030: 3cf8 d21a e3c0 d2ba 270c fe1a 9b57 c5c7
00000040: 87fb 09f1 96a4 ccd5 ad94 12e9 5806 c20f
00000050: e4da 42ae a124 1216 81a6 83e1 10ad 66a6
00000060: 9e5e 24ee d255 d6b3 7f59 607c d0ec 63fb
00000070: ea9f 0af6 99d4 d964 c056 1751 8ae4 2274
00000080: 5d68 a209 cb41 8c18 adfc 4fe1 61e5 9a8e
00000090: 5d00 b803 3581 b0b9 0df2 7273 27fe 9416
000000a0: ce49 f84c 0933 fb16 07f8 8f12 b772 df9e
000000b0: 8c4a 0781 cb2d e471 4f52 5af9 967f 60d9
000000c0: cd7f f35f 2939 321c d875 d42f b342 f72e
000000d0: 98c5 bc21 186b ca32 073d 7d42 048c 8448

tfl.pseudo_qconst2 i1 [32] scale=0.0048384005 zero_point=127
-0.8031745 -1.2096001 -0.8322049 -0.9870337 -0.7596289 -0.8031745 -0.6773761 -0.49835524
-0.69672966 -1.1128321 -0.7886593 -0.77414405 -0.9725185 -0.9338113 -0.7499521 -0.8757505
-0.8418817 -0.5467393 -0.48384005 -1.0886401 -0.58060807 -1.2337922 -0.43061766 -0.86607367
-1.0257409 -0.8418817 -0.8854273 -0.53222406 -0.37739524 -0.68705285 -0.9096193 -0.82252806
00000000: d985 d3b3 e2d9 f318 ef99 dcdf b6be e4ca
00000010: d10e 1b9e 0780 26cc abd1 c811 31f1 c3d5

tfl.pseudo_qconst3 i1 [32] scale=0.035108782 zero_point=-128
4.03751 3.054464 6.8813214 3.6162045 1.7905478 2.071418 8.95274 2.3522885
2.2118533 2.9491377 2.6331587 0.9128283 2.914029 2.5278323 0.94793713 3.5108783
4.2130537 1.2990249 2.5278323 5.0556645 1.6852216 2.9842465 1.0181547 2.071418
3.9321837 1.7203304 4.9152293 4.4237065 2.8087025 7.6537147 3.089573 1.3341337
00000000: f3d7 44e7 b3bb 7fc3 bfd4 cb9a d3c8 9be4
00000010: f8a5 c810 b0d5 9dbb f0b1 0cfe d05a d8a6

tfl.pseudo_qconst4 i1 [1, 1, 32] scale=0.0008995258 zero_point=28
-0.06746443 -0.02338767 -0.13043125 -0.06206728 -0.0008995258 0.08905306 -0.11064167 0.031483404
-0.030583877 -0.0008995258 -0.06656491 0.031483404 -0.005397155 -0.031483404 -0.04047866 -0.05846918
-0.04767487 0.034181982 -0.04677534 -0.14032602 -0.04047866 -0.048574395 0.022488145 -0.01978957
-0.0017990516 0.04497629 -0.11244073 -0.111541204 -0.059368704 -0.11423978 -0.07376112 0.045875818
00000000: d102 8bd7 1b7f a13f fa1b d23f 16f9 efdb
00000010: e742 e880 efe6 3506 1a4e 9fa0 da9d ca4f

tfl.pseudo_qconst6 i1 [32, 1, 3, 64]
24 31 -23 45 6 48 10 -9
-40 36 9 2 11 -5 -66 -31
15 56 -66 24 -23 -5 -31 -81
-8 16 -38 -64 45 -16 64 46
15 42 58 -34 -42 48 -23 -35
31 51 27 44 -60 -82 -21 8
-16 41 35 -85 14 -51 25 34
-27 -49 59 1 26 -4 -10 31
23 -85 -13 45 43 26 -50 1
-4 68 -47 -68 -11 -24 -66 38
-22 -66 -6 -35 -2 -25 54 -67
-127 -55 51 41 46 -22 56 -13
30 15 34 -123 39 47 21 21
-5 28 -48 39 -41 -56 -8 48
-25 -14 -38 -5 4 -64 -12 -50
29 -5 -54 -15 22 -24 2 -4
-58 45 3 2 38 42 -32 52
-55 81 59 -27 -91 -16 -10 -6
-5 -42 40 -35 -5 26 -27 -77
-108 -28 -1 -21 1 24 30 -55
13 -2 -20 -111 -17 -60 7 -12
-3 57 14 -9 12 -62 -43 25
21 33 40 -51 -35 37 42 24
24 -12 -37 -1 51 -56 -4 34
15 71 34 37 17 -50 26 -44
-18 39 62 1 -37 19 -7 -4
-109 76 23 76 25 4 106 -44
-118 20 -53 33 -51 -7 -87 46
-29 -55 53 -49 82 99 -86 68
-11 -10 -84 15 -38 -17 -43 75
71 14 -19 -26 -8 48 -59 14
46 -87 64 37 -64 20 -80 45
00000000: 181f e92d 0630 0af7 d824 0902 0bfb bee1
00000010: 0f38 be18 e9fb e1af f810 dac0 2df0 402e
00000020: 0f2a 3ade d630 e9dd 1f33 1b2c c4ae eb08
00000030: f029 23ab 0ecd 1922 e5cf 3b01 1afc f61f
00000040: 17ab f32d 2b1a ce01 fc44 d1bc f5e8 be26
00000050: eabe fadd fee7 36bd 81c9 3329 2eea 38f3
00000060: 1e0f 2285 272f 1515 fb1c d027 d7c8 f830
00000070: e7f2 dafb 04c0 f4ce 1dfb caf1 16e8 02fc
00000080: c62d 0302 262a e034 c951 3be5 a5f0 f6fa
00000090: fbd6 28dd fb1a e5b3 94e4 ffeb 0118 1ec9
000000a0: 0dfe ec91 efc4 07f4 fd39 0ef7 0cc2 d519
000000b0: 1521 28cd dd25 2a18 18f4 dbff 33c8 fc22
000000c0: 0f47 2225 11ce 1ad4 ee27 3e01 db13 f9fc
000000d0: 934c 174c 1904 6ad4 8a14 cb21 cdf9 a92e
000000e0: e3c9 35cf 5263 aa44 f5f6 ac0f daef d54b
000000f0: 470e ede6 f830 c50e 2ea9 4025 c014 b02d

tfl.pseudo_qconst7 i1 [64] scale=0.0065889005 zero_point=127
-0.75113463 -1.0805796 -0.34262282 -0.7050123 -0.38874513 -0.5402898 -0.21084481 -0.6061788
-0.35580063 -0.71160126 -0.44145632 -0.8895016 -0.25037822 -0.36238953 -0.49416754 -0.57982326
-0.22402261 -0.34921172 -1.126702 -0.31626722 -0.21084481 -0.65230113 -0.32285613 -0.42827854
-0.34262282 -0.19107811 -0.52052313 -0.21743372 -0.32944503 -0.35580063 -0.23720041 -0.35580063
-0.40192294 -0.74454576 -0.7906681 -0.21084481 -0.27673382 -0.90926826 -0.36238953 -0.63253444
-0.67865676 -0.42827854 -0.46122304 -0.36238953 -1.3111912 -0.22402261 -0.42168963 -0.71819013
-0.6391233 -1.0871686 -0.94880164 -0.32285613 -0.79725695 -0.32944503 -0.25696713 -1.6801696
-0.67865676 -0.44145632 -0.31626722 -1.1530576 -0.38874513 -0.32285613 -0.36897844 -0.63253444
00000000: 0ddb 4b14 442d 5f23 4913 3cf8 5948 3427
00000010: 5d4a d44f 5f1c 4e3e 4b62 305e 4d49 5b49
00000020: 420e 075f 55f5 481f 183e 3948 b85d 3f12
00000030: 1eda ef4e 064d 5880 183c 4fd0 444e 471f

tfl.pseudo_qconst8 i1 [64] scale=0.05154628 zero_point=-128
5.360813 6.1340075 10.103071 3.505147 5.360813 7.4742107 5.0515356 3.4536006
4.6907115 8.762868 2.21649 8.608229 8.04122 3.144323 3.1958692 5.7731833
4.1237025 2.1649437 8.144312 7.8350344 5.154628 3.8144248 3.6597857 8.917506
7.6803956 10.154617 4.948443 2.989684 2.989684 3.6597857 5.0515356 2.6804066
2.5257678 9.84534 4.5360727 13.144301 5.6185446 6.3401923 6.2370996 10.360802
4.381434 5.2061744 1.7010273 3.8659708 9.793793 7.886581 3.2474155 7.8350344
3.5566933 6.288646 4.639165 7.7319417 4.5360727 2.6288602 5.566998 5.6185446
8.608229 2.577314 6.3401923 5.876276 2.1133974 3.1958692 11.701005 3.7628784
00000000: e8f7 44c4 e811 e2c3 db2a ab27 1cbd bef0
00000010: d0aa 1e18 e4ca c72d 1545 e0ba bac7 e2b4
00000020: b13f d87f edfb f949 d5e5 a1cb 3e19 bf18
00000030: c5fa da16 d8b3 eced 27b2 fbf2 a9be 63c9

tfl.pseudo_qconst9 i1 [1, 1, 64] scale=0.0007076148 zero_point=38
-0.014859911 0.0 -0.088451855 0.043164503 0.004245689 -0.018397985 -0.031135052 0.022643674
-0.06722341 -0.004953304 -0.0127370665 0.0063685332 -0.024058904 0.010614222 0.047410194 -0.047410194
-0.032550283 -0.009906608 0.0573168 -0.041749272 -0.0127370665 0.004953304 -0.043872118 -0.06156249
-0.013444682 -0.041749272 -0.0021228446 -0.0028304593 -0.026889363 -0.012029452 -0.06014726 -0.007076148
-0.033965513 -0.041749272 0.010614222 -0.06580818 -0.018397985 0.021936059 -0.031135052 -0.0382112
0.0021228446 -0.021228444 -0.008491378 0.031842668 0.010614222 -0.050948266 -0.02052083 0.03538074
0.04104166 -0.014152296 0.02335129 -0.04104166 0.0063685332 0.021936059 -0.07925286 0.016275141
0.0063685332 -0.045994963 -0.016982757 0.026889363 0.019813215 -0.024766518 -0.11746406 0.06297772
00000000: 1126 a963 2c0c fa46 c71f 142f 0435 69e3
00000010: f818 77eb 142d e8cf 13eb 2322 0015 d11c
00000020: f6eb 35c9 0c45 faf0 2908 1a53 35de 0958
00000030: 6012 47ec 2f45 b63d 2fe5 0e4c 4203 807f

tfl.pseudo_qconst11 i1 [64, 1, 3, 6]
-13 30 55 -41 -24 -39 -2 41
-31 5 34 -24 -86 64 -102 -49
9 -127 112 49 -54 -28 -88 -47
127 51 -89 -13 -40 -60 77 65
8 124 86 -86 -15 18 -3 18
17 -83 -78 4 120 -63 -123 106
127 53 -91 84 97 -16 -127 48
-84 -8 -63 41 42 67 -22 -91
-59 -93 -30 94 -21 -1 -39 -102
90 -48 -55 88 -45 -19 79 11
-5 -110 22 37 65 78 -127 107
-44 -23 -2 -76 127 119 -69 105
49 -40 112 -11 123 -78 15 73
-90 18 87 -110 62 -37 -17 71
-115 -46 -72 -124 -70 -81 83 120
-40 24 25 19 -77 -127 53 -102
85 -83 91 -29 95 -14 63 127
68 35 2 31 4 -92 -120 1
13 93 7 -95 -89 83 -24 50
-31 11 -127 0 42 -26 -55 63
-50 -34 -17 124 -24 71 92 -106
46 -75 55 40 -127 45 2 105
-97 -65 -7 102 -52 24 -43 -40
-13 21 -68 -48 84 -98 -58 20
23 -14 -33 -94 -127 -31 -82 -42
54 -72 125 31 123 90 74 -59
-81 -127 79 101 -41 109 -88 114
-74 -81 -19 -62 79 17 23 19
76 39 -54 -57 0 -32 -12 72
127 31 -83 -22 74 99 -13 -16
66 -57 8 88 13 75 -99 -1
40 -127 -104 41 17 -42 -127 96
00000000: f31e 37d7 e8d9 fe29 e105 22e8 aa40 9acf
00000010: 0981 7031 cae4 a8d1 7f33 a7f3 d8c4 4d41
00000020: 087c 56aa f112 fd12 11ad b204 78c1 856a
00000030: 7f35 a554 61f0 8130 acf8 c129 2a43 eaa5
00000040: c5a3 e25e ebff d99a 5ad0 c958 d3ed 4f0b
00000050: fb92 1625 414e 816b d4e9 feb4 7f77 bb69
00000060: 31d8 70f5 7bb2 0f49 a612 5792 3edb ef47
00000070: 8dd2 b884 baaf 5378 d818 1913 b381 359a
00000080: 55ad 5be3 5ff2 3f7f 4423 021f 04a4 8801
00000090: 0d5d 07a1 a753 e832 e10b 8100 2ae6 c93f
000000a0: cede ef7c e847 5c96 2eb5 3728 812d 0269
000000b0: 9fbf f966 cc18 d5d8 f315 bcd0 549e c614
000000c0: 17f2 dfa2 81e1 aed6 36b8 7d1f 7b5a 4ac5
000000d0: af81 4f65 d76d a872 b6af edc2 4f11 1713
000000e0: 4c27 cac7 00e0 f448 7f1f adea 4a63 f3f0
000000f0: 42c7 0858 0d4b 9dff 2881 9829 11d6 8160
