assets/activity_detection_model1_select_tf_ops.tflite (tflite, 66800 bytes, 9 tensors)

tfl.pseudo_qconst1 i1 [7, 32]
0	0xb7	-73
1	0xe7	-25
2	0xe0	-32
3	0x71	113
4	0xb8	-72
5	0x4e	78
6	0xd9	-39
7	0x7f	127
8	0x14	20
9	0x3f	63
10	0xe1	-31
11	0xa9	-87
12	0xb8	-72
13	0xae	-82
14	0x25	37
15	0x5b	91
16	0x78	120
17	0xcd	-51
18	0x3e	62
19	0xe2	-30
20	0xf8	-8
21	0x84	-124
22	0xcc	-52
23	0x36	54
24	0x2e	46
25	0x74	116
26	0x4d	77
27	0xb0	-80
28	0xac	-84
29	0xf6	-10
30	0xbd	-67
31	0x66	102
32	0xcf	-49
33	0x37	55
34	0x9e	-98
35	0x81	-127
36	0x41	65
37	0xbc	-68
38	0x17	23
39	0xf6	-10
40	0xeb	-21
41	0xb7	-73
42	0x24	36
43	0xed	-19
44	0x12	18
45	0x55	85
46	0x9e	-98
47	0x19	25
48	0x07	7
49	0xe2	-30
50	0xda	-38
51	0x42	66
52	0x3e	62
53	0x0d	13
54	0xa8	-88
55	0xb1	-79
56	0x17	23
57	0x42	66
58	0x24	36
59	0x3a	58
60	0x35	53
61	0xfd	-3
62	0x37	55
63	0xb3	-77
64	0x17	23
65	0xc8	-56
66	0x52	82
67	0xbf	-65
68	0xde	-34
69	0x3e	62
70	0xc1	-63
71	0x8e	-114
72	0x41	65
73	0x26	38
74	0x81	-127
75	0x55	85
76	0xe1	-31
77	0x9e	-98
78	0x43	67
79	0xb2	-78
80	0xa6	-90
81	0xbc	-68
82	0xd3	-45
83	0xec	-20
84	0x2e	46
85	0x29	41
86	0x0f	15
87	0xba	-70
88	0x50	80
89	0x47	71
90	0x3b	59
91	0x33	51
92	0xfa	-6
93	0xb4	-76
94	0xd3	-45
95	0x16	22
96	0xda	-38
97	0x1d	29
98	0xc5	-59
99	0x9d	-99
100	0x97	-105
101	0xea	-22
102	0xac	-84
103	0x0a	10
104	0x02	2
105	0x2f	47
106	0xd0	-48
107	0x81	-127
108	0x3f	63
109	0xa2	-94
110	0xf1	-15
111	0xf0	-16
112	0xef	-17
113	0x20	32
114	0xc8	-56
115	0x16	22
116	0xdd	-35
117	0xbe	-66
118	0xac	-84
119	0xe3	-29
120	0x9c	-100
121	0x49	73
122	0xb7	-73
123	0xe1	-31
124	0xcd	-51
125	0xd1	-47
126	0xae	-82
127	0x43	67
128	0x8a	-118
129	0x93	-109
130	0xaa	-86
131	0xef	-17
132	0x9c	-100
133	0x3a	58
134	0x23	35
135	0x50	80
136	0x35	53
137	0x5d	93
138	0xeb	-21
139	0x5a	90
140	0xd7	-41
141	0x5f	95
142	0x26	38
143	0x46	70
144	0xa7	-89
145	0xe0	-32
146	0x18	24
147	0x14	20
148	0x08	8
149	0x2e	46
150	0x81	-127
151	0x60	96
152	0x2b	43
153	0x95	-107
154	0x4a	74
155	0x07	7
156	0x64	100
157	0x33	51
158	0x53	83
159	0x9e	-98
160	0x08	8
161	0x18	24
162	0x63	99
163	0x24	36
164	0x34	52
165	0xca	-54
166	0xda	-38
167	0x2b	43
168	0x8f	-113
169	0x04	4
170	0xc2	-62
171	0xd1	-47
172	0xad	-83
173	0x20	32
174	0x20	32
175	0x2e	46
176	0x9c	-100
177	0x0d	13
178	0x9c	-100
179	0xe2	-30
180	0x91	-111
181	0x32	50
182	0x1a	26
183	0x19	25
184	0x17	23
185	0x78	120
186	0xaa	-86
187	0xb9	-71
188	0x81	-127
189	0x4e	78
190	0xd9	-39
191	0x10	16
192	0x53	83
193	0x66	102
194	0x99	-103
195	0xf1	-15
196	0x56	86
197	0x2b	43
198	0x13	19
199	0x9b	-101
200	0x9a	-102
201	0xdd	-35
202	0x56	86
203	0x81	-127
204	0x96	-106
205	0xa0	-96
206	0x54	84
207	0x8e	-114
208	0x96	-106
209	0x8f	-113
210	0x1d	29
211	0xb8	-72
212	0x83	-125
213	0x51	81
214	0xaa	-86
215	0xe9	-23
216	0x1e	30
217	0x43	67
218	0xba	-70
219	0xce	-50
220	0x40	64
221	0x89	-119
222	0xc3	-61
223	0xb4	-76

tfl.pseudo_qconst2 i1 [64] scale=0.0044410275 zero_point=127
0	0xc7	-0.81714904
1	0x13	-0.47963098
2	0xdb	-0.7283285
3	0xd7	-0.7460926
4	0x14	-0.47518995
5	0x17	-0.46186686
6	0x1c	-0.4396617
7	0xf9	-0.59509766
8	0x09	-0.52404124
9	0x02	-0.55512846
10	0x30	-0.35084116
11	0x37	-0.31975397
12	0x22	-0.41301557
13	0x0d	-0.50627714
14	0x11	-0.48851302
15	0x90	-1.0614055
16	0x2b	-0.3730463
17	0x4f	-0.21316932
18	0x24	-0.4041335
19	0xb5	-0.8970876
20	0x26	-0.39525145
21	0x48	-0.24425651
22	0x95	-1.0392004
23	0x2d	-0.36416426
24	0x3d	-0.2931078
25	0xf9	-0.59509766
26	0xba	-0.8748824
27	0x8f	-1.0658466
28	0xdb	-0.7283285
29	0xdd	-0.7194465
30	0xda	-0.73276955
31	0x26	-0.39525145
32	0x34	-0.33307707
33	0x2c	-0.3686053
34	0x80	-1.132462
35	0x0e	-0.5018361
36	0x05	-0.5418054
37	0x4c	-0.2264924
38	0x27	-0.39081043
39	0xbe	-0.8571183
40	0x02	-0.55512846
41	0x21	-0.4174566
42	0x96	-1.0347594
43	0x40	-0.27978474
44	0x9c	-1.0081133
45	0x84	-1.1146979
46	0x24	-0.4041335
47	0x14	-0.47518995
48	0x15	-0.47074893
49	0x03	-0.55068743
50	0x2a	-0.37748733
51	0xda	-0.73276955
52	0xb9	-0.8793234
53	0xbd	-0.86155933
54	0x3d	-0.2931078
55	0x43	-0.26646164
56	0xdb	-0.7283285
57	0xc1	-0.84379524
58	0x5a	-0.16431803
59	0x08	-0.52848226
60	0x3b	-0.30198988
61	0x10	-0.49295405
62	0x11	-0.48851302
63	0x0f	-0.4973951

tfl.pseudo_qconst3 i1 [64] scale=0.08051215 zero_point=-128
0	0x42	15.619357
1	0x7f	20.530598
2	0x46	15.941406
3	0x1d	12.640408
4	0x54	17.068577
5	0x25	13.284505
6	0xa7	3.1399739
7	0x6d	19.081379
8	0x41	15.538845
9	0x3f	15.377821
10	0xe0	7.7291665
11	0x2e	14.009114
12	0x73	19.564453
13	0x5e	17.873697
14	0x39	14.894748
15	0x0d	11.352213
16	0x3c	15.136285
17	0x45	15.860894
18	0xc1	5.2332897
19	0x0b	11.191189
20	0xbe	4.9917536
21	0x5b	17.63216
22	0x22	13.042969
23	0x47	16.021917
24	0x4a	16.263454
25	0x6e	19.161892
26	0x22	13.042969
27	0x11	11.674262
28	0x2e	14.009114
29	0xe6	8.212239
30	0x13	11.835286
31	0x5d	17.793186
32	0x33	14.411675
33	0xa0	2.5763888
34	0x01	10.386067
35	0x32	14.331162
36	0xaf	3.7840712
37	0x64	18.35677
38	0x41	15.538845
39	0xec	8.6953125
40	0xe5	8.131727
41	0x06	10.788629
42	0xf8	9.661458
43	0x6e	19.161892
44	0x03	10.5470915
45	0x07	10.869141
46	0x91	1.3687066
47	0xfc	9.983507
48	0xdc	7.407118
49	0x54	17.068577
50	0x5e	17.873697
51	0x38	14.814236
52	0x0d	11.352213
53	0x2e	14.009114
54	0xa2	2.7374132
55	0x2e	14.009114
56	0x3e	15.297309
57	0x70	19.322916
58	0x67	18.598307
59	0x2f	14.089626
60	0x37	14.733724
61	0xa1	2.656901
62	0xdb	7.326606
63	0xef	8.936849

tfl.pseudo_qconst6 i1 [256] scale=0.0049473713 zero_point=-112
0	0xa3	0.09400006
1	0xb3	0.17315799
2	0x9f	0.07421057
3	0xa7	0.11378954
4	0x9a	0.049473714
5	0x9e	0.0692632
6	0x9b	0.054421086
7	0xca	0.28694755
8	0xb6	0.18800011
9	0x90	0.0
10	0x9a	0.049473714
11	0x94	0.019789485
12	0xab	0.13357903
13	0x99	0.044526342
14	0x98	0.03957897
15	0x9e	0.0692632
16	0xa0	0.07915794
17	0x93	0.0148421135
18	0x9a	0.049473714
19	0x9a	0.049473714
20	0x9c	0.059368454
21	0xa3	0.09400006
22	0x9d	0.064315826
23	0x96	0.029684227
24	0x93	0.0148421135
25	0xb7	0.19294748
26	0xa0	0.07915794
27	0x9f	0.07421057
28	0x9a	0.049473714
29	0xa3	0.09400006
30	0x9e	0.0692632
31	0x95	0.024736857
32	0x8f	-0.0049473713
33	0x98	0.03957897
34	0xa0	0.07915794
35	0x95	0.024736857
36	0xa5	0.1038948
37	0x93	0.0148421135
38	0x94	0.019789485
39	0x99	0.044526342
40	0x9c	0.059368454
41	0x95	0.024736857
42	0x99	0.044526342
43	0xa5	0.1038948
44	0x96	0.029684227
45	0x9a	0.049473714
46	0xa8	0.11873691
47	0x9a	0.049473714
48	0x9d	0.064315826
49	0x9b	0.054421086
50	0x9b	0.054421086
51	0xa9	0.12368428
52	0xc0	0.23747382
53	0xa0	0.07915794
54	0x9b	0.054421086
55	0x91	0.0049473713
56	0x92	0.009894743
57	0xb8	0.19789486
58	0x92	0.009894743
59	0x97	0.0346316
60	0x91	0.0049473713
61	0xa6	0.10884217
62	0xa3	0.09400006
63	0xa6	0.10884217
64	0x5a	0.999369
65	0x63	1.0438954
66	0x58	0.98947424
67	0x4b	0.92515844
68	0x52	0.95979005
69	0x5a	0.999369
70	0x69	1.0735795
71	0x7f	1.1824218
72	0x5b	1.0043163
73	0x59	0.99442166
74	0x4f	0.9449479
75	0x61	1.0340006
76	0x4f	0.9449479
77	0x4f	0.9449479
78	0x48	0.91031635
79	0x59	0.99442166
80	0x5c	1.0092638
81	0x5b	1.0043163
82	0x5e	1.0191585
83	0x64	1.0488427
84	0x58	0.98947424
85	0x53	0.9647374
86	0x57	0.9845269
87	0x61	1.0340006
88	0x4f	0.9449479
89	0x75	1.132948
90	0x4f	0.9449479
91	0x5b	1.0043163
92	0x5b	1.0043163
93	0x55	0.97463214
94	0x5a	0.999369
95	0x43	0.88557947
96	0x4e	0.94000053
97	0x5a	0.999369
98	0x5d	1.0142112
99	0x50	0.94989526
100	0x5d	1.0142112
101	0x5a	0.999369
102	0x5d	1.0142112
103	0x58	0.98947424
104	0x62	1.0389479
105	0x55	0.97463214
106	0x66	1.0587375
107	0x5f	1.0241059
108	0x62	1.0389479
109	0x47	0.9053689
110	0x61	1.0340006
111	0x59	0.99442166
112	0x58	0.98947424
113	0x52	0.95979005
114	0x52	0.95979005
115	0x61	1.0340006
116	0x58	0.98947424
117	0x64	1.0488427
118	0x62	1.0389479
119	0x5c	1.0092638
120	0x4b	0.92515844
121	0x61	1.0340006
122	0x51	0.9548427
123	0x50	0.94989526
124	0x59	0.99442166
125	0x5b	1.0043163
126	0x60	1.0290532
127	0x5b	1.0043163
128	0x95	0.024736857
129	0x91	0.0049473713
130	0x95	0.024736857
131	0x88	-0.03957897
132	0x89	-0.0346316
133	0x8e	-0.009894743
134	0x98	0.03957897
135	0x94	0.019789485
136	0x86	-0.049473714
137	0x8d	-0.0148421135
138	0x8c	-0.019789485
139	0x8c	-0.019789485
140	0x8b	-0.024736857
141	0x90	0.0
142	0x8f	-0.0049473713
143	0x93	0.0148421135
144	0x81	-0.07421057
145	0x89	-0.0346316
146	0x93	0.0148421135
147	0x93	0.0148421135
148	0x8c	-0.019789485
149	0x8c	-0.019789485
150	0x95	0.024736857
151	0x8b	-0.024736857
152	0x8c	-0.019789485
153	0x8f	-0.0049473713
154	0x94	0.019789485
155	0x95	0.024736857
156	0x90	0.0
157	0x98	0.03957897
158	0x94	0.019789485
159	0x8b	-0.024736857
160	0x80	-0.07915794
161	0x90	0.0
162	0x9c	0.059368454
163	0x95	0.024736857
164	0x8f	-0.0049473713
165	0x8d	-0.0148421135
166	0x85	-0.054421086
167	0x99	0.044526342
168	0x8f	-0.0049473713
169	0x8a	-0.029684227
170	0x99	0.044526342
171	0x8a	-0.029684227
172	0x9d	0.064315826
173	0x99	0.044526342
174	0x8e	-0.009894743
175	0x8f	-0.0049473713
176	0x91	0.0049473713
177	0x92	0.009894743
178	0x88	-0.03957897
179	0x96	0.029684227
180	0x93	0.0148421135
181	0x91	0.0049473713
182	0x88	-0.03957897
183	0x8b	-0.024736857
184	0x8d	-0.0148421135
185	0x95	0.024736857
186	0x86	-0.049473714
187	0x8f	-0.0049473713
188	0x94	0.019789485
189	0x9d	0.064315826
190	0x9d	0.064315826
191	0x8f	-0.0049473713
192	0xa2	0.089052685
193	0xb9	0.20284222
194	0x9e	0.0692632
195	0xa8	0.11873691
196	0x9b	0.054421086
197	0x9d	0.064315826
198	0x9a	0.049473714
199	0xc9	0.28200015
200	0xb7	0.19294748
201	0x8f	-0.0049473713
202	0x97	0.0346316
203	0x94	0.019789485
204	0xa9	0.12368428
205	0x98	0.03957897
206	0x98	0.03957897
207	0x9c	0.059368454
208	0x9e	0.0692632
209	0x93	0.0148421135
210	0x9a	0.049473714
211	0x94	0.019789485
212	0x9b	0.054421086
213	0xa3	0.09400006
214	0x90	0.0
215	0x97	0.0346316
216	0x95	0.024736857
217	0xbc	0.21768434
218	0x9f	0.07421057
219	0x9f	0.07421057
220	0x94	0.019789485
221	0xa4	0.09894743
222	0xa3	0.09400006
223	0x93	0.0148421135
224	0x8f	-0.0049473713
225	0x97	0.0346316
226	0x9f	0.07421057
227	0x97	0.0346316
228	0xa5	0.1038948
229	0x93	0.0148421135
230	0x96	0.029684227
231	0x99	0.044526342
232	0x9a	0.049473714
233	0x98	0.03957897
234	0x9c	0.059368454
235	0xa5	0.1038948
236	0x95	0.024736857
237	0xa3	0.09400006
238	0xa6	0.10884217
239	0x99	0.044526342
240	0x9b	0.054421086
241	0x9b	0.054421086
242	0x9c	0.059368454
243	0x9e	0.0692632
244	0xbe	0.22757909
245	0xa1	0.08410531
246	0x9b	0.054421086
247	0x92	0.009894743
248	0x92	0.009894743
249	0xaf	0.15336852
250	0x92	0.009894743
251	0x9a	0.049473714
252	0x8f	-0.0049473713
253	0x9f	0.07421057
254	0x9f	0.07421057
255	0xa8	0.11873691

tfl.pseudo_qconst7 i1 [256, 6]
0	0x81	-127
1	0xea	-22
2	0xef	-17
3	0x19	25
4	0x0c	12
5	0xb4	-76
6	0x81	-127
7	0x51	81
8	0xd3	-45
9	0x48	72
10	0xf3	-13
11	0xa3	-93
12	0x66	102
13	0x00	0
14	0x7f	127
15	0x4b	75
16	0x0c	12
17	0x77	119
18	0xc5	-59
19	0x3b	59
20	0xfc	-4
21	0x81	-127
22	0x24	36
23	0x2e	46
24	0x29	41
25	0x76	118
26	0xca	-54
27	0xf5	-11
28	0x81	-127
29	0xaf	-81
30	0x05	5
31	0x15	21
32	0x5c	92
33	0x6a	106
34	0xff	-1
35	0x81	-127
36	0x1b	27
37	0xf3	-13
38	0xc8	-56
39	0x81	-127
40	0x67	103
41	0x7a	122
42	0xac	-84
43	0xe7	-25
44	0x10	16
45	0x7f	127
46	0x67	103
47	0xbf	-65
48	0x55	85
49	0x35	53
50	0x7f	127
51	0x34	52
52	0x12	18
53	0xd1	-47
54	0x2a	42
55	0x7f	127
56	0x95	-107
57	0xe9	-23
58	0xf2	-14
59	0x31	49
60	0x96	-106
61	0x20	32
62	0xa2	-94
63	0x72	114
64	0x6e	110
65	0x7f	127
66	0x86	-122
67	0xaa	-86
68	0xbb	-69
69	0x81	-127
70	0xce	-50
71	0xa5	-91
72	0x67	103
73	0x46	70
74	0x4e	78
75	0x71	113
76	0x37	55
77	0x81	-127
78	0x55	85
79	0x4a	74
80	0xbb	-69
81	0xbd	-67
82	0x7f	127
83	0x7a	122
84	0x81	-127
85	0xa5	-91
86	0xc2	-62
87	0xfd	-3
88	0x57	87
89	0x2f	47
90	0xc2	-62
91	0x3b	59
92	0xd3	-45
93	0x6d	109
94	0xa2	-94
95	0x81	-127
96	0x68	104
97	0xcc	-52
98	0x7f	127
99	0x16	22
100	0x84	-124
101	0xc1	-63
102	0x19	25
103	0x31	49
104	0x81	-127
105	0xe3	-29
106	0x02	2
107	0xab	-85
108	0x7a	122
109	0xb0	-80
110	0x18	24
111	0x81	-127
112	0x2e	46
113	0xf3	-13
114	0xc5	-59
115	0x81	-127
116	0x39	57
117	0x38	56
118	0x06	6
119	0x55	85
120	0x7f	127
121	0xb5	-75
122	0x2d	45
123	0x4a	74
124	0xfb	-5
125	0x26	38
126	0xf9	-7
127	0x05	5
128	0x40	64
129	0x7f	127
130	0xc3	-61
131	0xc6	-58
132	0x81	-127
133	0xdb	-37
134	0x34	52
135	0x41	65
136	0xd9	-39
137	0xc5	-59
138	0xc6	-58
139	0x7f	127
140	0x16	22
141	0x63	99
142	0xd3	-45
143	0x11	17
144	0x87	-121
145	0x81	-127
146	0xa3	-93
147	0x9a	-102
148	0xba	-70
149	0x34	52
150	0x2e	46
151	0x7f	127
152	0xef	-17
153	0xc8	-56
154	0x70	112
155	0xf8	-8
156	0x7f	127
157	0x56	86
158	0x9f	-97
159	0xce	-50
160	0x2c	44
161	0xe3	-29
162	0x9d	-99
163	0x17	23
164	0xe7	-25
165	0x5d	93
166	0xe2	-30
167	0x81	-127
168	0x66	102
169	0xd7	-41
170	0xe4	-28
171	0xbc	-68
172	0x81	-127
173	0x5a	90
174	0xf9	-7
175	0x7f	127
176	0x5a	90
177	0x94	-108
178	0x7c	124
179	0x8f	-113
180	0x1f	31
181	0x1e	30
182	0xe0	-32
183	0xcf	-49
184	0x5a	90
185	0x81	-127
186	0xb1	-79
187	0x1a	26
188	0x81	-127
189	0xda	-38
190	0x92	-110
191	0xba	-70
192	0x0a	10
193	0xce	-50
194	0x9c	-100
195	0xfe	-2
196	0x60	96
197	0x81	-127
198	0x77	119
199	0xbc	-68
200	0x7f	127
201	0x12	18
202	0x66	102
203	0x43	67
204	0x17	23
205	0x07	7
206	0x7f	127
207	0xce	-50
208	0x2f	47
209	0x67	103
210	0x81	-127
211	0x7b	123
212	0x04	4
213	0x2d	45
214	0x95	-107
215	0xf7	-9
216	0xb7	-73
217	0x7f	127
218	0xf6	-10
219	0x39	57
220	0x15	21
221	0x8c	-116
222	0x0b	11
223	0xf6	-10
224	0x4e	78
225	0xd5	-43
226	0x7f	127
227	0x1a	26
228	0x59	89
229	0x7f	127
230	0x1d	29
231	0x74	116
232	0xa3	-93
233	0xa9	-87
234	0x67	103
235	0xe9	-23
236	0x36	54
237	0x01	1
238	0x1d	29
239	0x7f	127
240	0x0c	12
241	0xcb	-53
242	0x03	3
243	0x7f	127
244	0xf4	-12
245	0xaf	-81
246	0xbe	-66
247	0x36	54
248	0x65	101
249	0x6d	109
250	0x7f	127
251	0xaa	-86
252	0xdb	-37
253	0x7f	127
254	0x12	18
255	0x08	8

tfl.pseudo_qconst8 i1 [256, 64]
0	0x30	48
1	0xef	-17
2	0x3a	58
3	0x42	66
4	0x35	53
5	0x21	33
6	0xbe	-66
7	0x40	64
8	0x18	24
9	0x28	40
10	0xb9	-71
11	0x02	2
12	0xe6	-26
13	0x4a	74
14	0xc1	-63
15	0x11	17
16	0x13	19
17	0xe0	-32
18	0xd9	-39
19	0x4c	76
20	0xe5	-27
21	0xce	-50
22	0x21	33
23	0xc8	-56
24	0x17	23
25	0x5e	94
26	0x13	19
27	0xe1	-31
28	0x56	86
29	0xce	-50
30	0x13	19
31	0xcd	-51
32	0xdd	-35
33	0xc9	-55
34	0x36	54
35	0x4a	74
36	0xc2	-62
37	0xfe	-2
38	0xec	-20
39	0x38	56
40	0x0f	15
41	0x2f	47
42	0x2c	44
43	0x0b	11
44	0x31	49
45	0x7f	127
46	0xd4	-44
47	0xe6	-26
48	0x01	1
49	0xf7	-9
50	0xcd	-51
51	0xf9	-7
52	0x21	33
53	0x19	25
54	0x08	8
55	0xe8	-24
56	0x13	19
57	0xfc	-4
58	0xf7	-9
59	0xcf	-49
60	0x31	49
61	0xb6	-74
62	0x03	3
63	0x23	35
64	0x60	96
65	0xf4	-12
66	0x55	85
67	0x42	66
68	0x06	6
69	0xf3	-13
70	0xf2	-14
71	0x46	70
72	0x16	22
73	0x07	7
74	0xf3	-13
75	0xfa	-6
76	0xfa	-6
77	0x0c	12
78	0x11	17
79	0x5a	90
80	0x00	0
81	0xea	-22
82	0xda	-38
83	0x57	87
84	0xe0	-32
85	0x25	37
86	0x61	97
87	0xf6	-10
88	0x08	8
89	0x45	69
90	0x68	104
91	0x7b	123
92	0x44	68
93	0xf6	-10
94	0xe2	-30
95	0x2c	44
96	0xd4	-44
97	0xf7	-9
98	0x73	115
99	0xe7	-25
100	0x2d	45
101	0x1f	31
102	0xe6	-26
103	0x08	8
104	0x15	21
105	0xe3	-29
106	0x7f	127
107	0xed	-19
108	0x3f	63
109	0x72	114
110	0xfb	-5
111	0xf4	-12
112	0x22	34
113	0x4a	74
114	0x24	36
115	0x07	7
116	0x49	73
117	0x3a	58
118	0x24	36
119	0xe0	-32
120	0x17	23
121	0x41	65
122	0x38	56
123	0x1d	29
124	0x08	8
125	0xd4	-44
126	0xe6	-26
127	0x0f	15
128	0xd8	-40
129	0x40	64
130	0x38	56
131	0x0d	13
132	0x0c	12
133	0xd2	-46
134	0x9d	-99
135	0x3c	60
136	0xf2	-14
137	0x06	6
138	0xbe	-66
139	0x24	36
140	0x2e	46
141	0x17	23
142	0xfb	-5
143	0x45	69
144	0x3c	60
145	0x06	6
146	0xaa	-86
147	0x3a	58
148	0x18	24
149	0xe0	-32
150	0x13	19
151	0x04	4
152	0xc0	-64
153	0xbf	-65
154	0x16	22
155	0x18	24
156	0xfc	-4
157	0x10	16
158	0x7f	127
159	0x40	64
160	0xdc	-36
161	0xd2	-46
162	0x50	80
163	0x2d	45
164	0xe7	-25
165	0xd0	-48
166	0xb8	-72
167	0xf9	-7
168	0x18	24
169	0xed	-19
170	0x0a	10
171	0xf8	-8
172	0x54	84
173	0x31	49
174	0xbd	-67
175	0xeb	-21
176	0xf5	-11
177	0xac	-84
178	0x07	7
179	0x3c	60
180	0xf7	-9
181	0x46	70
182	0xf8	-8
183	0xd3	-45
184	0x1d	29
185	0x0c	12
186	0x2b	43
187	0xc9	-55
188	0xeb	-21
189	0x9f	-97
190	0x12	18
191	0x1c	28
192	0x0b	11
193	0x40	64
194	0xf0	-16
195	0x22	34
196	0x0c	12
197	0x10	16
198	0x0a	10
199	0x06	6
200	0x43	67
201	0x1d	29
202	0xf5	-11
203	0x55	85
204	0x3b	59
205	0x2d	45
206	0x11	17
207	0x1a	26
208	0x60	96
209	0x0b	11
210	0x05	5
211	0x09	9
212	0x22	34
213	0xf0	-16
214	0xe8	-24
215	0x26	38
216	0x13	19
217	0xf3	-13
218	0xf2	-14
219	0xef	-17
220	0xf7	-9
221	0xfe	-2
222	0x37	55
223	0x2e	46
224	0x3b	59
225	0x3a	58
226	0x2b	43
227	0xe4	-28
228	0xee	-18
229	0x24	36
230	0x60	96
231	0x2a	42
232	0x13	19
233	0x22	34
234	0x0f	15
235	0x0f	15
236	0x21	33
237	0x05	5
238	0x2e	46
239	0x2f	47
240	0xb0	-80
241	0xc8	-56
242	0xff	-1
243	0xfa	-6
244	0x05	5
245	0x7f	127
246	0x10	16
247	0x0f	15
248	0x07	7
249	0x6d	109
250	0x07	7
251	0x24	36
252	0x1c	28
253	0x1b	27
254	0x18	24
255	0x35	53

tfl.pseudo_qconst9 i1 [128] scale=0.0043496746 zero_point=-118
0	0x8c	0.008699349
1	0x84	-0.026098046
2	0x95	0.04784642
3	0x92	0.034797397
4	0x8a	0.0
5	0x91	0.030447721
6	0x95	0.04784642
7	0x8e	0.017398698
8	0x95	0.04784642
9	0x8d	0.013049023
10	0x90	0.026098046
11	0x90	0.026098046
12	0x88	-0.008699349
13	0x8b	0.0043496746
14	0x8b	0.0043496746
15	0x8f	0.021748373
16	0x92	0.034797397
17	0x89	-0.0043496746
18	0x95	0.04784642
19	0x8e	0.017398698
20	0x95	0.04784642
21	0x8f	0.021748373
22	0x9a	0.06959479
23	0x9b	0.073944464
24	0x99	0.06524512
25	0x87	-0.013049023
26	0x93	0.03914707
27	0x91	0.030447721
28	0x8d	0.013049023
29	0x92	0.034797397
30	0x97	0.056545768
31	0x90	0.026098046
32	0x6e	0.9917258
33	0x68	0.96562773
34	0x71	1.0047748
35	0x77	1.0308728
36	0x6c	0.98302644
37	0x77	1.0308728
38	0x7d	1.056971
39	0x76	1.0265232
40	0x75	1.0221735
41	0x73	1.0134742
42	0x76	1.0265232
43	0x6f	0.99607545
44	0x6c	0.98302644
45	0x74	1.0178238
46	0x74	1.0178238
47	0x75	1.0221735
48	0x77	1.0308728
49	0x72	1.0091245
50	0x7e	1.0613205
51	0x69	0.96997744
52	0x6f	0.99607545
53	0x6d	0.98737615
54	0x75	1.0221735
55	0x75	1.0221735
56	0x74	1.0178238
57	0x6b	0.9786768
58	0x7f	1.0656703
59	0x6e	0.9917258
60	0x6d	0.98737615
61	0x70	1.0004251
62	0x6b	0.9786768
63	0x73	1.0134742
64	0x8a	0.0
65	0x82	-0.034797397
66	0x8e	0.017398698
67	0x94	0.043496747
68	0x8a	0.0
69	0x8c	0.008699349
70	0x90	0.026098046
71	0x8d	0.013049023
72	0x98	0.060895443
73	0x8c	0.008699349
74	0x84	-0.026098046
75	0x94	0.043496747
76	0x87	-0.013049023
77	0x8f	0.021748373
78	0x94	0.043496747
79	0x8e	0.017398698
80	0x8a	0.0
81	0x80	-0.043496747
82	0x8f	0.021748373
83	0x8a	0.0
84	0x94	0.043496747
85	0x93	0.03914707
86	0x8e	0.017398698
87	0x85	-0.021748373
88	0x96	0.052196093
89	0x87	-0.013049023
90	0x9f	0.091343164
91	0x97	0.056545768
92	0x8f	0.021748373
93	0x89	-0.0043496746
94	0x8c	0.008699349
95	0x8c	0.008699349
96	0x87	-0.013049023
97	0x86	-0.017398698
98	0x98	0.060895443
99	0x97	0.056545768
100	0x86	-0.017398698
101	0x91	0.030447721
102	0x91	0.030447721
103	0x95	0.04784642
104	0x8f	0.021748373
105	0x97	0.056545768
106	0x90	0.026098046
107	0x8d	0.013049023
108	0x87	-0.013049023
109	0x90	0.026098046
110	0x8b	0.0043496746
111	0x90	0.026098046
112	0x8f	0.021748373
113	0x8a	0.0
114	0x90	0.026098046
115	0x8a	0.0
116	0x91	0.030447721
117	0x8d	0.013049023
118	0x91	0.030447721
119	0x93	0.03914707
120	0x90	0.026098046
121	0x86	-0.017398698
122	0x9b	0.073944464
123	0x8b	0.0043496746
124	0x8d	0.013049023
125	0x8f	0.021748373
126	0x89	-0.0043496746
127	0x98	0.060895443

tfl.pseudo_qconst10 i1 [128, 64]
0	0x46	70
1	0x98	-104
2	0x00	0
3	0x20	32
4	0x24	36
5	0xd9	-39
6	0xe0	-32
7	0xac	-84
8	0x29	41
9	0xfd	-3
10	0x47	71
11	0xe1	-31
12	0x20	32
13	0x52	82
14	0x08	8
15	0xe4	-28
16	0xa5	-91
17	0xe0	-32
18	0x12	18
19	0xb3	-77
20	0x2f	47
21	0x62	98
22	0xec	-20
23	0xa1	-95
24	0x72	114
25	0x33	51
26	0xe9	-23
27	0x64	100
28	0x2b	43
29	0x5a	90
30	0xd1	-47
31	0x65	101
32	0xbf	-65
33	0xc1	-63
34	0xba	-70
35	0x99	-103
36	0xbd	-67
37	0x4f	79
38	0x07	7
39	0x54	84
40	0x58	88
41	0xfc	-4
42	0x52	82
43	0x63	99
44	0xdc	-36
45	0x01	1
46	0x00	0
47	0x93	-109
48	0x0d	13
49	0x7f	127
50	0x68	104
51	0x41	65
52	0xf9	-7
53	0xdf	-33
54	0x17	23
55	0x57	87
56	0x40	64
57	0x10	16
58	0x68	104
59	0x01	1
60	0xcf	-49
61	0x8b	-117
62	0xe1	-31
63	0xf9	-7
64	0xe7	-25
65	0x9c	-100
66	0x78	120
67	0x38	56
68	0x65	101
69	0xe2	-30
70	0x44	68
71	0xc0	-64
72	0xbc	-68
73	0x1e	30
74	0x0d	13
75	0x6d	109
76	0xd0	-48
77	0xfa	-6
78	0x0f	15
79	0x6c	108
80	0x5b	91
81	0xbb	-69
82	0xff	-1
83	0x2a	42
84	0x63	99
85	0x5d	93
86	0x00	0
87	0x4e	78
88	0xe4	-28
89	0xa7	-89
90	0xe0	-32
91	0xd4	-44
92	0x45	69
93	0xc6	-58
94	0x7f	127
95	0x30	48
96	0x87	-121
97	0x4a	74
98	0xf1	-15
99	0x1e	30
100	0x78	120
101	0xcb	-53
102	0xa4	-92
103	0x82	-126
104	0xd2	-46
105	0x9a	-102
106	0xe3	-29
107	0x69	105
108	0x9c	-100
109	0xbf	-65
110	0xe9	-23
111	0x92	-110
112	0x67	103
113	0x2f	47
114	0xd6	-42
115	0xb3	-77
116	0xdc	-36
117	0x91	-111
118	0x81	-127
119	0x6f	111
120	0x4c	76
121	0x1a	26
122	0xd1	-47
123	0xa7	-89
124	0x0c	12
125	0x75	117
126	0x6a	106
127	0xc5	-59
128	0x19	25
129	0xea	-22
130	0x2a	42
131	0x0b	11
132	0xe0	-32
133	0xe2	-30
134	0xef	-17
135	0x39	57
136	0x62	98
137	0x8c	-116
138	0xe0	-32
139	0xce	-50
140	0xc4	-60
141	0x4a	74
142	0x92	-110
143	0x64	100
144	0x3e	62
145	0x21	33
146	0xe2	-30
147	0x4b	75
148	0x24	36
149	0xeb	-21
150	0x11	17
151	0xee	-18
152	0x81	-127
153	0xe9	-23
154	0x0f	15
155	0x7a	122
156	0xc7	-57
157	0x50	80
158	0xe7	-25
159	0x03	3
160	0xa7	-89
161	0xcc	-52
162	0x0b	11
163	0x72	114
164	0xea	-22
165	0x19	25
166	0x9d	-99
167	0x24	36
168	0xe8	-24
169	0x44	68
170	0xd7	-41
171	0xa8	-88
172	0x02	2
173	0xce	-50
174	0x42	66
175	0xfb	-5
176	0x2a	42
177	0x41	65
178	0xff	-1
179	0x0e	14
180	0xd7	-41
181	0x9b	-101
182	0xde	-34
183	0xbd	-67
184	0xba	-70
185	0xef	-17
186	0x2f	47
187	0x0a	10
188	0x9e	-98
189	0xd4	-44
190	0xf7	-9
191	0x2e	46
192	0xdd	-35
193	0x37	55
194	0xf2	-14
195	0x8e	-114
196	0xfb	-5
197	0xa7	-89
198	0xc4	-60
199	0xd5	-43
200	0x2a	42
201	0xef	-17
202	0x3f	63
203	0xce	-50
204	0xff	-1
205	0xf4	-12
206	0x6b	107
207	0xc8	-56
208	0xa3	-93
209	0x62	98
210	0x4b	75
211	0xb3	-77
212	0xc5	-59
213	0x2d	45
214	0x29	41
215	0xeb	-21
216	0x5c	92
217	0x76	118
218	0x23	35
219	0x2e	46
220	0xa7	-89
221	0xb7	-73
222	0x2f	47
223	0xca	-54
224	0x58	88
225	0x51	81
226	0x81	-127
227	0x56	86
228	0x40	64
229	0x20	32
230	0x54	84
231	0xfa	-6
232	0xea	-22
233	0xe5	-27
234	0x76	118
235	0x45	69
236	0x29	41
237	0x4c	76
238	0x43	67
239	0x2b	43
240	0x3d	61
241	0x57	87
242	0x07	7
243	0xb4	-76
244	0xcb	-53
245	0xc9	-55
246	0x1d	29
247	0xc0	-64
248	0x24	36
249	0xa3	-93
250	0x4e	78
251	0x48	72
252	0x34	52
253	0xc1	-63
254	0xa8	-88
255	0x4b	75

tfl.pseudo_qconst11 i1 [128, 32]
0	0xb9	-71
1	0x12	18
2	0xe5	-27
3	0xc9	-55
4	0x06	6
5	0xeb	-21
6	0x4e	78
7	0x11	17
8	0x19	25
9	0xab	-85
10	0x33	51
11	0x8f	-113
12	0x02	2
13	0xf6	-10
14	0xf5	-11
15	0x2e	46
16	0xf9	-7
17	0xf8	-8
18	0x3c	60
19	0x16	22
20	0xde	-34
21	0xb1	-79
22	0xc5	-59
23	0x33	51
24	0xff	-1
25	0x0f	15
26	0xa9	-87
27	0xbf	-65
28	0x16	22
29	0x2f	47
30	0xd1	-47
31	0x81	-127
32	0x26	38
33	0xce	-50
34	0xd6	-42
35	0x67	103
36	0xc4	-60
37	0xf8	-8
38	0x41	65
39	0x02	2
40	0xb7	-73
41	0x98	-104
42	0x46	70
43	0x35	53
44	0xfa	-6
45	0xd4	-44
46	0x22	34
47	0x81	-127
48	0x19	25
49	0x11	17
50	0x4d	77
51	0xc9	-55
52	0x02	2
53	0xef	-17
54	0xfe	-2
55	0x07	7
56	0x92	-110
57	0x88	-120
58	0xbf	-65
59	0xb2	-78
60	0x02	2
61	0x3c	60
62	0x0a	10
63	0xdc	-36
64	0xf7	-9
65	0x7f	127
66	0x56	86
67	0x29	41
68	0xd4	-44
69	0x0c	12
70	0x31	49
71	0x25	37
72	0x3d	61
73	0x02	2
74	0x16	22
75	0x2c	44
76	0x18	24
77	0x08	8
78	0x20	32
79	0x1e	30
80	0xc8	-56
81	0xd9	-39
82	0xc1	-63
83	0x32	50
84	0x0c	12
85	0x18	24
86	0x0f	15
87	0xba	-70
88	0xf0	-16
89	0xea	-22
90	0x33	51
91	0x33	51
92	0xf1	-15
93	0xca	-54
94	0xf3	-13
95	0x16	22
96	0x03	3
97	0x24	36
98	0xce	-50
99	0xc8	-56
100	0x0a	10
101	0x2f	47
102	0xf6	-10
103	0xf5	-11
104	0x57	87
105	0x13	19
106	0xfb	-5
107	0x2f	47
108	0x2d	45
109	0xfa	-6
110	0x43	67
111	0x2c	44
112	0x24	36
113	0x2a	42
114	0xf5	-11
115	0x2c	44
116	0x7f	127
117	0x3b	59
118	0xf0	-16
119	0x00	0
120	0x52	82
121	0xc2	-62
122	0x1e	30
123	0x4b	75
124	0xf2	-14
125	0x15	21
126	0x05	5
127	0x44	68
128	0x08	8
129	0xcd	-51
130	0xe9	-23
131	0xe2	-30
132	0xee	-18
133	0xa4	-92
134	0x3b	59
135	0x40	64
136	0xfc	-4
137	0xe9	-23
138	0x0f	15
139	0xff	-1
140	0xd8	-40
141	0x7f	127
142	0x12	18
143	0xf1	-15
144	0xdf	-33
145	0xf1	-15
146	0x26	38
147	0xc8	-56
148	0xfc	-4
149	0x6b	107
150	0xdc	-36
151	0xfb	-5
152	0x19	25
153	0x31	49
154	0x26	38
155	0xd4	-44
156	0x34	52
157	0xc9	-55
158	0xb4	-76
159	0xf5	-11
160	0x2d	45
161	0xe8	-24
162	0x3b	59
163	0x02	2
164	0x19	25
165	0x51	81
166	0x0d	13
167	0x2b	43
168	0x73	115
169	0x25	37
170	0x4b	75
171	0x7a	122
172	0x05	5
173	0xda	-38
174	0xf3	-13
175	0x5e	94
176	0x14	20
177	0x4e	78
178	0xd7	-41
179	0x0e	14
180	0x1e	30
181	0xd5	-43
182	0x16	22
183	0x2d	45
184	0x32	50
185	0x2e	46
186	0x41	65
187	0x27	39
188	0x7f	127
189	0x4b	75
190	0x13	19
191	0xe9	-23
192	0x24	36
193	0xb5	-75
194	0xe0	-32
195	0x0f	15
196	0x32	50
197	0x8d	-115
198	0xf5	-11
199	0x86	-122
200	0x0c	12
201	0x91	-111
202	0x7f	127
203	0x07	7
204	0x0b	11
205	0x3c	60
206	0xe8	-24
207	0xf7	-9
208	0x1b	27
209	0x1c	28
210	0xc7	-57
211	0x03	3
212	0xf2	-14
213	0x54	84
214	0xd1	-47
215	0xb1	-79
216	0xdb	-37
217	0x23	35
218	0x19	25
219	0xf4	-12
220	0xbe	-66
221	0x22	34
222	0xaa	-86
223	0xab	-85
224	0x97	-105
225	0x5d	93
226	0x3f	63
227	0x7f	127
228	0xa1	-95
229	0x7c	124
230	0x24	36
231	0x11	17
232	0x61	97
233	0xeb	-21
234	0xc3	-61
235	0xec	-20
236	0x08	8
237	0xea	-22
238	0xee	-18
239	0x3a	58
240	0x09	9
241	0x43	67
242	0x2e	46
243	0x29	41
244	0xe6	-26
245	0x65	101
246	0x01	1
247	0x78	120
248	0x0f	15
249	0x04	4
250	0x3e	62
251	0x0e	14
252	0xa4	-92
253	0xf8	-8
254	0x75	117
255	0x06	6
